…
Fisher Yu and Vladlen Koltun. Multi-scale context aggregation by dilated convolutions. In Interna_tional Conference on Learning Representations, 2016._

Aonan Zhang, Quan Wang, Zhenyao Zhu, John Paisley, and Chong Wang. Fully supervised speaker
diarization. In ICASSP 2019-2019 IEEE International Conference on Acoustics, Speech and
_Signal Processing (ICASSP), pp. 6301–6305. IEEE, 2019._


-----

A APPENDIX

Appendix Table 1: SegTime model topology - Module 1D-DS-ResNet of SegTime for the Sleep-EDF dataset,
Part I

---------------------------------------------------------------Layer (type) Output Shape Param #
================================================================
Conv1d-1 [-1, 2, 52500] 14
BatchNorm1d-2 [-1, 2, 52500] 4
ReLU-3 [-1, 2, 52500] 0
MaxPool1d-4 [-1, 2, 26250] 0
Conv1d-5 [-1, 2, 26250] 4
BatchNorm1d-6 [-1, 2, 26250] 4
ReLU-7 [-1, 2, 26250] 0
Conv1d-8 [-1, 2, 26250] 12
BatchNorm1d-9 [-1, 2, 26250] 4
ReLU-10 [-1, 2, 26250] 0
Conv1d-11 [-1, 4, 26250] 8
BatchNorm1d-12 [-1, 4, 26250] 8
Conv1d-13 [-1, 4, 26250] 8
BatchNorm1d-14 [-1, 4, 26250] 8
ReLU-15 [-1, 4, 26250] 0
Bottleneck1D-16 [-1, 4, 26250] 0
Conv1d-17 [-1, 2, 26250] 8
BatchNorm1d-18 [-1, 2, 26250] 4
ReLU-19 [-1, 2, 26250] 0
Conv1d-20 [-1, 2, 26250] 12
BatchNorm1d-21 [-1, 2, 26250] 4
ReLU-22 [-1, 2, 26250] 0
Conv1d-23 [-1, 4, 26250] 8
BatchNorm1d-24 [-1, 4, 26250] 8
ReLU-25 [-1, 4, 26250] 0
Bottleneck1D-26 [-1, 4, 26250] 0
Conv1d-27 [-1, 4, 26250] 16
BatchNorm1d-28 [-1, 4, 26250] 8
ReLU-29 [-1, 4, 26250] 0
Conv1d-30 [-1, 4, 13125] 48
BatchNorm1d-31 [-1, 4, 13125] 8
ReLU-32 [-1, 4, 13125] 0
Conv1d-33 [-1, 8, 13125] 32
BatchNorm1d-34 [-1, 8, 13125] 16
Conv1d-35 [-1, 8, 13125] 32
BatchNorm1d-36 [-1, 8, 13125] 16
ReLU-37 [-1, 8, 13125] 0
Bottleneck1D-38 [-1, 8, 13125] 0
Conv1d-39 [-1, 4, 13125] 32
BatchNorm1d-40 [-1, 4, 13125] 8
ReLU-41 [-1, 4, 13125] 0
Conv1d-42 [-1, 4, 13125] 48
BatchNorm1d-43 [-1, 4, 13125] 8
ReLU-44 [-1, 4, 13125] 0
Conv1d-45 [-1, 8, 13125] 32
BatchNorm1d-46 [-1, 8, 13125] 16
ReLU-47 [-1, 8, 13125] 0
Bottleneck1D-48 [-1, 8, 13125] 0
Conv1d-49 [-1, 8, 13125] 64
BatchNorm1d-50 [-1, 8, 13125] 16
================================================================


-----

Appendix Table 2: SegTime model topology - Module 1D-DS-ResNet of SegTime for the Sleep-EDF dataset,
Part II

---------------------------------------------------------------Layer (type) Output Shape Param #
================================================================
ReLU-51 [-1, 8, 13125] 0
Conv1d-52 [-1, 8, 13125] 192
BatchNorm1d-53 [-1, 8, 13125] 16
ReLU-54 [-1, 8, 13125] 0
Conv1d-55 [-1, 16, 13125] 128
BatchNorm1d-56 [-1, 16, 13125] 32
Conv1d-57 [-1, 16, 13125] 128
BatchNorm1d-58 [-1, 16, 13125] 32
ReLU-59 [-1, 16, 13125] 0
Bottleneck1D-60 [-1, 16, 13125] 0
Conv1d-61 [-1, 8, 13125] 128
BatchNorm1d-62 [-1, 8, 13125] 16
ReLU-63 [-1, 8, 13125] 0
Conv1d-64 [-1, 8, 13125] 192
BatchNorm1d-65 [-1, 8, 13125] 16
ReLU-66 [-1, 8, 13125] 0
Conv1d-67 [-1, 16, 13125] 128
BatchNorm1d-68 [-1, 16, 13125] 32
ReLU-69 [-1, 16, 13125] 0
Bottleneck1D-70 [-1, 16, 13125] 0
Conv1d-71 [-1, 8, 13125] 128
BatchNorm1d-72 [-1, 8, 13125] 16
ReLU-73 [-1, 8, 13125] 0
Conv1d-74 [-1, 8, 13125] 192
BatchNorm1d-75 [-1, 8, 13125] 16
ReLU-76 [-1, 8, 13125] 0
Conv1d-77 [-1, 16, 13125] 128
BatchNorm1d-78 [-1, 16, 13125] 32
ReLU-79 [-1, 16, 13125] 0
Bottleneck1D-80 [-1, 16, 13125] 0
Conv1d-81 [-1, 8, 13125] 128
BatchNorm1d-82 [-1, 8, 13125] 16
ReLU-83 [-1, 8, 13125] 0
Conv1d-84 [-1, 8, 13125] 192
BatchNorm1d-85 [-1, 8, 13125] 16
ReLU-86 [-1, 8, 13125] 0
Conv1d-87 [-1, 16, 13125] 128
BatchNorm1d-88 [-1, 16, 13125] 32
ReLU-89 [-1, 16, 13125] 0
Bottleneck1D-90 [-1, 16, 13125] 0
Conv1d-91 [-1, 16, 13125] 256
BatchNorm1d-92 [-1, 16, 13125] 32
ReLU-93 [-1, 16, 13125] 0
Conv1d-94 [-1, 16, 13125] 768
BatchNorm1d-95 [-1, 16, 13125] 32
ReLU-96 [-1, 16, 13125] 0
Conv1d-97 [-1, 32, 13125] 512
BatchNorm1d-98 [-1, 32, 13125] 64
Conv1d-99 [-1, 32, 13125] 512
BatchNorm1d-100 [-1, 32, 13125] 64
================================================================


-----

Appendix Table 3: SegTime model topology - Module 1D-DS-ResNet of SegTime for the Sleep-EDF dataset,
Part III

---------------------------------------------------------------Layer (type) Output Shape Param #
================================================================
ReLU-101 [-1, 32, 13125] 0
Bottleneck1D-102 [-1, 32, 13125] 0
Conv1d-103 [-1, 16, 13125] 512
BatchNorm1d-104 [-1, 16, 13125] 32
ReLU-105 [-1, 16, 13125] 0
Conv1d-106 [-1, 16, 13125] 768
BatchNorm1d-107 [-1, 16, 13125] 32
ReLU-108 [-1, 16, 13125] 0
Conv1d-109 [-1, 32, 13125] 512
BatchNorm1d-110 [-1, 32, 13125] 64
ReLU-111 [-1, 32, 13125] 0
Bottleneck1D-112 [-1, 32, 13125] 0
Conv1d-113 [-1, 16, 13125] 512
BatchNorm1d-114 [-1, 16, 13125] 32
ReLU-115 [-1, 16, 13125] 0
Conv1d-116 [-1, 16, 13125] 768
BatchNorm1d-117 [-1, 16, 13125] 32
ReLU-118 [-1, 16, 13125] 0
Conv1d-119 [-1, 32, 13125] 512
BatchNorm1d-120 [-1, 32, 13125] 64
ReLU-121 [-1, 32, 13125] 0
Bottleneck1D-122 [-1, 32, 13125] 0
================================================================
Total params: 8,662
Trainable params: 8,662
Non-trainable params: 0
---------------------------------------------------------------Input size (MB): 0.40
Forward/backward pass size (MB): 151.41
Params size (MB): 0.03
Estimated Total Size (MB): 151.84
---------------------------------------------------------------
Appendix Figure 1: Depthwise separable convolution (conv.) and atrous convolution.


-----

Appendix Table 4: SegTime model topology - Module AMSP of SegTime for the Sleep-EDF dataset

---------------------------------------------------------------Layer (type) Output Shape Param #
================================================================
Conv1d-1 [-1, 8, 13125] 256
BatchNorm1d-2 [-1, 8, 13125] 16
ReLU-3 [-1, 8, 13125] 0
_AMSPModule-4 [-1, 8, 13125] 0
Conv1d-5 [-1, 8, 13125] 768
BatchNorm1d-6 [-1, 8, 13125] 16
ReLU-7 [-1, 8, 13125] 0
_AMSPModule-8 [-1, 8, 13125] 0
Conv1d-9 [-1, 8, 13125] 768
BatchNorm1d-10 [-1, 8, 13125] 16
ReLU-11 [-1, 8, 13125] 0
_AMSPModule-12 [-1, 8, 13125] 0
Conv1d-13 [-1, 8, 13125] 768
BatchNorm1d-14 [-1, 8, 13125] 16
ReLU-15 [-1, 8, 13125] 0
_AMSPModule-16 [-1, 8, 13125] 0
AdaptiveAvgPool1d-17 [-1, 32, 1] 0
Conv1d-18 [-1, 8, 1] 256
ReLU-19 [-1, 8, 1] 0
Conv1d-20 [-1, 8, 13125] 320
BatchNorm1d-21 [-1, 8, 13125] 16
ReLU-22 [-1, 8, 13125] 0
Dropout-23 [-1, 8, 13125] 0
================================================================
Total params: 3,216
Trainable params: 3,216
Non-trainable params: 0
---------------------------------------------------------------Input size (MB): 1.60
Forward/backward pass size (MB): 16.02
Params size (MB): 0.01
Estimated Total Size (MB): 17.64
---------------------------------------------------------------

-----

Appendix Table 5: SegTime model topology - Module Decoder of SegTime for the Sleep-EDF dataset

---------------------------------------------------------------Layer (type) Output Shape Param #
================================================================
Conv1d-1 [-1, 1, 26250] 4
BatchNorm1d-2 [-1, 1, 26250] 2
ReLU-3 [-1, 1, 26250] 0
Conv1d-4 [-1, 8, 26250] 216
BatchNorm1d-5 [-1, 8, 26250] 16
ReLU-6 [-1, 8, 26250] 0
Dropout-7 [-1, 8, 26250] 0
Conv1d-8 [-1, 8, 26250] 192
BatchNorm1d-9 [-1, 8, 26250] 16
ReLU-10 [-1, 8, 26250] 0
Dropout-11 [-1, 8, 26250] 0
================================================================
Total params: 446
Trainable params: 446
Non-trainable params: 0
---------------------------------------------------------------Input size (MB): 42057.04
Forward/backward pass size (MB): 13.42
Params size (MB): 0.00
Estimated Total Size (MB): 42070.46
---------------------------------------------------------------
Appendix Table 6: SegTime model topology - Module MSS-LSTM of SegTime for the Sleep-EDF dataset

---------------------------------------------------------------Layer (type) Output Shape Param #
================================================================
_SkipLSTM-1 [-1, 3500, 2] 40
_SkipLSTM-2 [-1, 2100, 2] 40
_SkipLSTM-3 [-1, 1050, 2] 40
_SkipLSTM-4 [-1, 525, 2] 40
Dropout-5 [-1, 105000, 2] 0
================================================================
Total params: 160
Total params: 160
Non-trainable params: 0
---------------------------------------------------------------

-----

Appendix Table 7: Hyper-parameters of the SegTime for the opportunity dataset and Sleep-EDF dataset.

|Parameter|Value|Comments|
|---|---|---|
|Loss function Regularisation Class balancing|Cross entropy None Customised|A classic loss function for classficiation. We tried to balance different classes, but not everyone, es- peically for those that are under-represented in the datasets.|
…
